…
{0: 26.55180030925558, 1: 8.769604594654297, 2: 39.7393417274133, 3: 5.798542080848244, 4: 3.3797216699801194, 5: 15.760989617848464}
0 (2404, 2, 3000)
1 (794, 2, 3000)
2 (3598, 2, 3000)
3 (525, 2, 3000)
4 (306, 2, 3000)
5 (1427, 2, 3000)
Train data shape: (72436, 2, 3000)
Train labels shape: (72436,)
Validate data shape: (9054, 2, 3000)
Validate labels shape: (9054,)
Test data shape: (9055, 2, 3000)
Test labels shape: (9055,)
Total data size (number of samples): 90545
EEGClassifier(
  (base): BaseEEGClassifier(
    (usleep): USleep(
      (encoder): Sequential(
        (0): _EncoderBlock(
          (block_prepool): Sequential(
            (0): Conv1d(2, 6, kernel_size=(7,), stride=(1,), padding=same)
            (1): ELU(alpha=1.0)
            (2): BatchNorm1d(6, eps=1e-05, momentum=0.1, affine=True, track_running_stats=True)
          )
          (pad): ConstantPad1d(padding=(1, 1), value=0)
          (maxpool): MaxPool1d(kernel_size=2, stride=2, padding=0, dilation=1, ceil_mode=False)
        )
        (1): _EncoderBlock(
          (block_prepool): Sequential(
            (0): Conv1d(6, 9, kernel_size=(7,), stride=(1,), padding=same)
            (1): ELU(alpha=1.0)
            (2): BatchNorm1d(9, eps=1e-05, momentum=0.1, affine=True, track_running_stats=True)
          )
          (pad): ConstantPad1d(padding=(1, 1), value=0)
          (maxpool): MaxPool1d(kernel_size=2, stride=2, padding=0, dilation=1, ceil_mode=False)
        )
        (2): _EncoderBlock(
          (block_prepool): Sequential(
            (0): Conv1d(9, 11, kernel_size=(7,), stride=(1,), padding=same)
            (1): ELU(alpha=1.0)
            (2): BatchNorm1d(11, eps=1e-05, momentum=0.1, affine=True, track_running_stats=True)
          )
          (pad): ConstantPad1d(padding=(1, 1), value=0)
          (maxpool): MaxPool1d(kernel_size=2, stride=2, padding=0, dilation=1, ceil_mode=False)
        )
        (3): _EncoderBlock(
          (block_prepool): Sequential(
            (0): Conv1d(11, 15, kernel_size=(7,), stride=(1,), padding=same)
            (1): ELU(alpha=1.0)
            (2): BatchNorm1d(15, eps=1e-05, momentum=0.1, affine=True, track_running_stats=True)
          )
          (pad): ConstantPad1d(padding=(1, 1), value=0)
          (maxpool): MaxPool1d(kernel_size=2, stride=2, padding=0, dilation=1, ceil_mode=False)
        )
        (4): _EncoderBlock(
          (block_prepool): Sequential(
            (0): Conv1d(15, 20, kernel_size=(7,), stride=(1,), padding=same)
            (1): ELU(alpha=1.0)
            (2): BatchNorm1d(20, eps=1e-05, momentum=0.1, affine=True, track_running_stats=True)
          )
          (pad): ConstantPad1d(padding=(1, 1), value=0)
          (maxpool): MaxPool1d(kernel_size=2, stride=2, padding=0, dilation=1, ceil_mode=False)
        )
        (5): _EncoderBlock(
          (block_prepool): Sequential(
            (0): Conv1d(20, 28, kernel_size=(7,), stride=(1,), padding=same)
            (1): ELU(alpha=1.0)
            (2): BatchNorm1d(28, eps=1e-05, momentum=0.1, affine=True, track_running_stats=True)
          )
          (pad): ConstantPad1d(padding=(1, 1), value=0)
          (maxpool): MaxPool1d(kernel_size=2, stride=2, padding=0, dilation=1, ceil_mode=False)
        )
      )
      (bottom): Sequential(
        (0): Conv1d(28, 40, kernel_size=(7,), stride=(1,), padding=(3,))
        (1): ELU(alpha=1.0)
        (2): BatchNorm1d(40, eps=1e-05, momentum=0.1, affine=True, track_running_stats=True)
      )
      (decoder): Sequential(
        (0): _DecoderBlock(
          (block_preskip): Sequential(
            (0): Upsample(scale_factor=2.0, mode='nearest')
            (1): Conv1d(40, 28, kernel_size=(2,), stride=(1,), padding=same)
            (2): ELU(alpha=1.0)
            (3): BatchNorm1d(28, eps=1e-05, momentum=0.1, affine=True, track_running_stats=True)
          )
          (block_postskip): Sequential(
            (0): Conv1d(56, 28, kernel_size=(7,), stride=(1,), padding=same)
            (1): ELU(alpha=1.0)
            (2): BatchNorm1d(28, eps=1e-05, momentum=0.1, affine=True, track_running_stats=True)
          )
        )
        (1): _DecoderBlock(
          (block_preskip): Sequential(
            (0): Upsample(scale_factor=2.0, mode='nearest')
            (1): Conv1d(28, 20, kernel_size=(2,), stride=(1,), padding=same)
            (2): ELU(alpha=1.0)
            (3): BatchNorm1d(20, eps=1e-05, momentum=0.1, affine=True, track_running_stats=True)
          )
          (block_postskip): Sequential(
            (0): Conv1d(40, 20, kernel_size=(7,), stride=(1,), padding=same)
            (1): ELU(alpha=1.0)
            (2): BatchNorm1d(20, eps=1e-05, momentum=0.1, affine=True, track_running_stats=True)
          )
        )
        (2): _DecoderBlock(
          (block_preskip): Sequential(
            (0): Upsample(scale_factor=2.0, mode='nearest')
            (1): Conv1d(20, 15, kernel_size=(2,), stride=(1,), padding=same)
            (2): ELU(alpha=1.0)
            (3): BatchNorm1d(15, eps=1e-05, momentum=0.1, affine=True, track_running_stats=True)
          )
          (block_postskip): Sequential(
            (0): Conv1d(30, 15, kernel_size=(7,), stride=(1,), padding=same)
            (1): ELU(alpha=1.0)
            (2): BatchNorm1d(15, eps=1e-05, momentum=0.1, affine=True, track_running_stats=True)
          )
        )
        (3): _DecoderBlock(
          (block_preskip): Sequential(
            (0): Upsample(scale_factor=2.0, mode='nearest')
            (1): Conv1d(15, 11, kernel_size=(2,), stride=(1,), padding=same)
            (2): ELU(alpha=1.0)
            (3): BatchNorm1d(11, eps=1e-05, momentum=0.1, affine=True, track_running_stats=True)
          )
          (block_postskip): Sequential(
            (0): Conv1d(22, 11, kernel_size=(7,), stride=(1,), padding=same)
            (1): ELU(alpha=1.0)
            (2): BatchNorm1d(11, eps=1e-05, momentum=0.1, affine=True, track_running_stats=True)
          )
        )
        (4): _DecoderBlock(
          (block_preskip): Sequential(
            (0): Upsample(scale_factor=2.0, mode='nearest')
            (1): Conv1d(11, 9, kernel_size=(2,), stride=(1,), padding=same)
            (2): ELU(alpha=1.0)
            (3): BatchNorm1d(9, eps=1e-05, momentum=0.1, affine=True, track_running_stats=True)
          )
          (block_postskip): Sequential(
            (0): Conv1d(18, 9, kernel_size=(7,), stride=(1,), padding=same)
            (1): ELU(alpha=1.0)
            (2): BatchNorm1d(9, eps=1e-05, momentum=0.1, affine=True, track_running_stats=True)
          )
        )
        (5): _DecoderBlock(
          (block_preskip): Sequential(
            (0): Upsample(scale_factor=2.0, mode='nearest')
            (1): Conv1d(9, 6, kernel_size=(2,), stride=(1,), padding=same)
            (2): ELU(alpha=1.0)
            (3): BatchNorm1d(6, eps=1e-05, momentum=0.1, affine=True, track_running_stats=True)
          )
          (block_postskip): Sequential(
            (0): Conv1d(12, 6, kernel_size=(7,), stride=(1,), padding=same)
            (1): ELU(alpha=1.0)
            (2): BatchNorm1d(6, eps=1e-05, momentum=0.1, affine=True, track_running_stats=True)
          )
        )
      )
      (clf): Sequential(
        (0): Conv1d(6, 6, kernel_size=(1,), stride=(1,))
        (1): Tanh()
        (2): AvgPool1d(kernel_size=(3000,), stride=(3000,), padding=(0,))
      )
      (final_layer): Sequential(
        (0): Conv1d(6, 5, kernel_size=(1,), stride=(1,))
        (1): ELU(alpha=1.0)
        (2): Conv1d(5, 5, kernel_size=(1,), stride=(1,))
        (3): Identity()
      )
    )
  )
  (fc): Linear(in_features=5, out_features=6, bias=True)
)
{
    "alpha": 0.01,
    "batch_size": 120,
    "device": "cuda",
    "epochs": 5,
    "lr": 0.001,
    "model_name": "eeg-classifier_seed-42",
    "num_workers": 2,
    "phase": "base",
    "seed": 42
}

###### PHASE 1 FINISHED ##########
Figure(640x480)

###### PHASE 2 FINISHED ########OUTPUT_FOLDER##
Figure(640x480)
train loss: 0.03504089788041987
train score: 0.8400442477876107
…
Running: python3 ./model_runner.py ./modelpy/3cnn-trans-mlp.py
{0: 26.55180030925558, 1: 8.769604594654297, 2: 39.7393417274133, 3: 5.798542080848244, 4: 3.3797216699801194, 5: 15.760989617848464}
0 (2404, 2, 3000)
1 (794, 2, 3000)
2 (3598, 2, 3000)
3 (525, 2, 3000)
4 (306, 2, 3000)
5 (1427, 2, 3000)
Train data shape: (72436, 2, 3000)
Train labels shape: (72436,)
Validate data shape: (9054, 2, 3000)
Validate labels shape: (9054,)
Test data shape: (9055, 2, 3000)
Test labels shape: (9055,)
Total data size (number of samples): 90545
EEGClassifier(
  (cnn_layers): Sequential(
    (0): CNNBlock(
      (conv): Conv1d(2, 16, kernel_size=(7,), stride=(2,), padding=(3,))
      (bn): BatchNorm1d(16, eps=1e-05, momentum=0.1, affine=True, track_running_stats=True)
      (relu): ReLU()
    )
    (1): CNNBlock(
      (conv): Conv1d(16, 32, kernel_size=(5,), stride=(2,), padding=(2,))
      (bn): BatchNorm1d(32, eps=1e-05, momentum=0.1, affine=True, track_running_stats=True)
      (relu): ReLU()
    )
    (2): CNNBlock(
      (conv): Conv1d(32, 64, kernel_size=(3,), stride=(2,), padding=(1,))
      (bn): BatchNorm1d(64, eps=1e-05, momentum=0.1, affine=True, track_running_stats=True)
      (relu): ReLU()
    )
    (3): CNNBlock(
      (conv): Conv1d(64, 128, kernel_size=(3,), stride=(2,), padding=(1,))
      (bn): BatchNorm1d(128, eps=1e-05, momentum=0.1, affine=True, track_running_stats=True)
      (relu): ReLU()
    )
  )
  (transformer_layers): TransformerEncoder(
    (layers): ModuleList(
      (0-2): 3 x TransformerEncoderLayer(
        (self_attn): MultiheadAttention(
          (out_proj): NonDynamicallyQuantizableLinear(in_features=128, out_features=128, bias=True)
        )
        (linear1): Linear(in_features=128, out_features=2048, bias=True)
        (dropout): Dropout(p=0.1, inplace=False)
        (linear2): Linear(in_features=2048, out_features=128, bias=True)
        (norm1): LayerNorm((128,), eps=1e-05, elementwise_affine=True)
        (norm2): LayerNorm((128,), eps=1e-05, elementwise_affine=True)
        (dropout1): Dropout(p=0.1, inplace=False)
        (dropout2): Dropout(p=0.1, inplace=False)
      )
    )
  )
  (mlp): Sequential(
    (0): Linear(in_features=24064, out_features=512, bias=True)
    (1): ReLU()
    (2): Dropout(p=0.5, inplace=False)
    (3): Linear(in_features=512, out_features=128, bias=True)
    (4): ReLU()
    (5): Dropout(p=0.5, inplace=False)
    (6): Linear(in_features=128, out_features=6, bias=True)
  )
)
Output shape: torch.Size([32, 6])
{
    "alpha": 0.01,
    "batch_size": 120,
    "device": "cuda",
    "epochs": 5,
    "lr": 0.001,
    "model_name": "eeg-classifier_seed-42",
    "num_workers": 2,
    "phase": "base",
    "seed": 42
}

###### PHASE 1 FINISHED ##########
Figure(640x480)

###### PHASE 2 FINISHED ########OUTPUT_FOLDER##
Figure(640x480)
…
Running: python3 ./model_runner.py ./modelpy/6SleepStagerChambon2018.py
{0: 26.55180030925558, 1: 8.769604594654297, 2: 39.7393417274133, 3: 5.798542080848244, 4: 3.3797216699801194, 5: 15.760989617848464}
0 (2404, 2, 3000)
1 (794, 2, 3000)
2 (3598, 2, 3000)
3 (525, 2, 3000)
4 (306, 2, 3000)
5 (1427, 2, 3000)
Train data shape: (72436, 2, 3000)
Train labels shape: (72436,)
Validate data shape: (9054, 2, 3000)
Validate labels shape: (9054,)
Test data shape: (9055, 2, 3000)
Test labels shape: (9055,)
Total data size (number of samples): 90545
EEGClassifier(
  (base): BaseEEGClassifier(
    (sleep_stager): SleepStagerChambon2018(
      (spatial_conv): Conv2d(1, 2, kernel_size=(2, 1), stride=(1, 1))
      (feature_extractor): Sequential(
        (0): Conv2d(1, 8, kernel_size=(1, 50), stride=(1, 1), padding=(0, 25))
        (1): Identity()
        (2): ReLU()
        (3): MaxPool2d(kernel_size=(1, 13), stride=(1, 13), padding=0, dilation=1, ceil_mode=False)
        (4): Conv2d(8, 8, kernel_size=(1, 50), stride=(1, 1), padding=(0, 25))
        (5): Identity()
        (6): ReLU()
        (7): MaxPool2d(kernel_size=(1, 13), stride=(1, 13), padding=0, dilation=1, ceil_mode=False)
      )
      (final_layer): Sequential(
        (0): Dropout(p=0.25, inplace=False)
        (1): Linear(in_features=272, out_features=5, bias=True)
      )
    )
  )
  (fc): Linear(in_features=5, out_features=6, bias=True)
)
{
    "alpha": 0.01,
    "batch_size": 120,
    "device": "cuda",
    "epochs": 5,
    "lr": 0.001,
    "model_name": "eeg-classifier_seed-42",
    "num_workers": 2,
    "phase": "base",
    "seed": 42
}

###### PHASE 1 FINISHED ##########
Figure(640x480)

###### PHASE 2 FINISHED ########OUTPUT_FOLDER##
Figure(640x480)
train loss: 0.04219050494442999
train score: 0.8051376597836775
…
Running model_runner.py with argument: ./modelpy/2residual.py
Running: python3 ./model_runner.py ./modelpy/2residual.py
{0: 26.55180030925558, 1: 8.769604594654297, 2: 39.7393417274133, 3: 5.798542080848244, 4: 3.3797216699801194, 5: 15.760989617848464}
0 (2404, 2, 3000)
1 (794, 2, 3000)
2 (3598, 2, 3000)
3 (525, 2, 3000)
4 (306, 2, 3000)
5 (1427, 2, 3000)
Train data shape: (72436, 2, 3000)
Train labels shape: (72436,)
Validate data shape: (9054, 2, 3000)
Validate labels shape: (9054,)
Test data shape: (9055, 2, 3000)
Test labels shape: (9055,)
Total data size (number of samples): 90545
EEGClassifier(
  (conv1): Conv1d(2, 64, kernel_size=(7,), stride=(2,), padding=(3,), bias=False)
  (bn1): BatchNorm1d(64, eps=1e-05, momentum=0.1, affine=True, track_running_stats=True)
  (relu): ReLU(inplace=True)
  (maxpool): MaxPool1d(kernel_size=3, stride=2, padding=1, dilation=1, ceil_mode=False)
  (layer1): Sequential(
    (0): ResidualBlock(
      (conv1): Conv1d(64, 64, kernel_size=(3,), stride=(1,), padding=(1,), bias=False)
      (bn1): BatchNorm1d(64, eps=1e-05, momentum=0.1, affine=True, track_running_stats=True)
      (conv2): Conv1d(64, 64, kernel_size=(3,), stride=(1,), padding=(1,), bias=False)
      (bn2): BatchNorm1d(64, eps=1e-05, momentum=0.1, affine=True, track_running_stats=True)
      (se): SEBlock(
        (avg_pool): AdaptiveAvgPool1d(output_size=1)
        (fc): Sequential(
          (0): Linear(in_features=64, out_features=4, bias=False)
          (1): ReLU(inplace=True)
          (2): Linear(in_features=4, out_features=64, bias=False)
          (3): Sigmoid()
        )
      )
      (shortcut): Sequential()
    )
    (1): ResidualBlock(
      (conv1): Conv1d(64, 64, kernel_size=(3,), stride=(1,), padding=(1,), bias=False)
      (bn1): BatchNorm1d(64, eps=1e-05, momentum=0.1, affine=True, track_running_stats=True)
      (conv2): Conv1d(64, 64, kernel_size=(3,), stride=(1,), padding=(1,), bias=False)
      (bn2): BatchNorm1d(64, eps=1e-05, momentum=0.1, affine=True, track_running_stats=True)
      (se): SEBlock(
        (avg_pool): AdaptiveAvgPool1d(output_size=1)
        (fc): Sequential(
          (0): Linear(in_features=64, out_features=4, bias=False)
          (1): ReLU(inplace=True)
          (2): Linear(in_features=4, out_features=64, bias=False)
          (3): Sigmoid()
        )
      )
      (shortcut): Sequential()
    )
  )
  (layer2): Sequential(
    (0): ResidualBlock(
      (conv1): Conv1d(64, 128, kernel_size=(3,), stride=(2,), padding=(1,), bias=False)
      (bn1): BatchNorm1d(128, eps=1e-05, momentum=0.1, affine=True, track_running_stats=True)
      (conv2): Conv1d(128, 128, kernel_size=(3,), stride=(1,), padding=(1,), bias=False)
      (bn2): BatchNorm1d(128, eps=1e-05, momentum=0.1, affine=True, track_running_stats=True)
      (se): SEBlock(
        (avg_pool): AdaptiveAvgPool1d(output_size=1)
        (fc): Sequential(
          (0): Linear(in_features=128, out_features=8, bias=False)
          (1): ReLU(inplace=True)
          (2): Linear(in_features=8, out_features=128, bias=False)
          (3): Sigmoid()
        )
      )
      (shortcut): Sequential(
        (0): Conv1d(64, 128, kernel_size=(1,), stride=(2,), bias=False)
        (1): BatchNorm1d(128, eps=1e-05, momentum=0.1, affine=True, track_running_stats=True)
      )
    )
    (1): ResidualBlock(
      (conv1): Conv1d(128, 128, kernel_size=(3,), stride=(1,), padding=(1,), bias=False)
      (bn1): BatchNorm1d(128, eps=1e-05, momentum=0.1, affine=True, track_running_stats=True)
      (conv2): Conv1d(128, 128, kernel_size=(3,), stride=(1,), padding=(1,), bias=False)
      (bn2): BatchNorm1d(128, eps=1e-05, momentum=0.1, affine=True, track_running_stats=True)
      (se): SEBlock(
        (avg_pool): AdaptiveAvgPool1d(output_size=1)
        (fc): Sequential(
          (0): Linear(in_features=128, out_features=8, bias=False)
          (1): ReLU(inplace=True)
          (2): Linear(in_features=8, out_features=128, bias=False)
          (3): Sigmoid()
        )
      )
      (shortcut): Sequential()
    )
  )
  (layer3): Sequential(
    (0): ResidualBlock(
      (conv1): Conv1d(128, 256, kernel_size=(3,), stride=(2,), padding=(1,), bias=False)
      (bn1): BatchNorm1d(256, eps=1e-05, momentum=0.1, affine=True, track_running_stats=True)
      (conv2): Conv1d(256, 256, kernel_size=(3,), stride=(1,), padding=(1,), bias=False)
      (bn2): BatchNorm1d(256, eps=1e-05, momentum=0.1, affine=True, track_running_stats=True)
      (se): SEBlock(
        (avg_pool): AdaptiveAvgPool1d(output_size=1)
        (fc): Sequential(
          (0): Linear(in_features=256, out_features=16, bias=False)
          (1): ReLU(inplace=True)
          (2): Linear(in_features=16, out_features=256, bias=False)
          (3): Sigmoid()
        )
      )
      (shortcut): Sequential(
        (0): Conv1d(128, 256, kernel_size=(1,), stride=(2,), bias=False)
        (1): BatchNorm1d(256, eps=1e-05, momentum=0.1, affine=True, track_running_stats=True)
      )
    )
    (1): ResidualBlock(
      (conv1): Conv1d(256, 256, kernel_size=(3,), stride=(1,), padding=(1,), bias=False)
      (bn1): BatchNorm1d(256, eps=1e-05, momentum=0.1, affine=True, track_running_stats=True)
      (conv2): Conv1d(256, 256, kernel_size=(3,), stride=(1,), padding=(1,), bias=False)
      (bn2): BatchNorm1d(256, eps=1e-05, momentum=0.1, affine=True, track_running_stats=True)
      (se): SEBlock(
        (avg_pool): AdaptiveAvgPool1d(output_size=1)
        (fc): Sequential(
          (0): Linear(in_features=256, out_features=16, bias=False)
          (1): ReLU(inplace=True)
          (2): Linear(in_features=16, out_features=256, bias=False)
          (3): Sigmoid()
        )
      )
      (shortcut): Sequential()
    )
  )
  (gru): GRU(256, 128, num_layers=2, batch_first=True, dropout=0.5, bidirectional=True)
  (attn): MultiheadAttention(
    (out_proj): NonDynamicallyQuantizableLinear(in_features=256, out_features=256, bias=True)
  )
  (fc): Sequential(
    (0): Linear(in_features=256, out_features=128, bias=True)
    (1): ReLU(inplace=True)
    (2): Dropout(p=0.5, inplace=False)
    (3): Linear(in_features=128, out_features=6, bias=True)
  )
)
Output shape: torch.Size([32, 6])
{
    "alpha": 0.01,
    "batch_size": 120,
    "device": "cuda",
    "epochs": 5,
    "lr": 0.001,
    "model_name": "eeg-classifier_seed-42",
    "num_workers": 2,
    "phase": "base",
    "seed": 42
}

###### PHASE 1 FINISHED ##########
Figure(640x480)

###### PHASE 2 FINISHED ########OUTPUT_FOLDER##
Figure(640x480)
…
{0: 26.55180030925558, 1: 8.769604594654297, 2: 39.7393417274133, 3: 5.798542080848244, 4: 3.3797216699801194, 5: 15.760989617848464}
0 (2404, 2, 3000)
1 (794, 2, 3000)
2 (3598, 2, 3000)
3 (525, 2, 3000)
4 (306, 2, 3000)
5 (1427, 2, 3000)
Train data shape: (72436, 2, 3000)
Train labels shape: (72436,)
Validate data shape: (9054, 2, 3000)
Validate labels shape: (9054,)
Test data shape: (9055, 2, 3000)
Test labels shape: (9055,)
Total data size (number of samples): 90545
EEGClassifier(
  (base): BaseEEGClassifier(
    (sleep_stager): SleepStagerBlanco2020(
      (feature_extractor): Sequential(
        (0): Conv2d(2, 20, kernel_size=(1, 7), stride=(1, 1), groups=2)
        (1): Identity()
        (2): ReLU()
        (3): MaxPool2d(kernel_size=(1, 2), stride=(1, 2), padding=0, dilation=1, ceil_mode=False)
        (4): Conv2d(20, 20, kernel_size=(1, 7), stride=(1, 1), groups=20)
        (5): Identity()
        (6): ReLU()
        (7): MaxPool2d(kernel_size=(1, 2), stride=(1, 2), padding=0, dilation=1, ceil_mode=False)
        (8): Conv2d(20, 20, kernel_size=(1, 5), stride=(1, 1), groups=20)
        (9): Identity()
        (10): ReLU()
        (11): MaxPool2d(kernel_size=(1, 2), stride=(1, 2), padding=0, dilation=1, ceil_mode=False)
        (12): Conv2d(20, 20, kernel_size=(1, 5), stride=(1, 1), groups=20)
        (13): Identity()
        (14): ReLU()
        (15): MaxPool2d(kernel_size=(1, 2), stride=(1, 2), padding=0, dilation=1, ceil_mode=False)
        (16): Conv2d(20, 20, kernel_size=(1, 5), stride=(1, 1), groups=20)
        (17): Identity()
        (18): ReLU()
        (19): MaxPool2d(kernel_size=(1, 2), stride=(1, 2), padding=0, dilation=1, ceil_mode=False)
        (20): Conv2d(20, 20, kernel_size=(1, 3), stride=(1, 1), groups=20)
        (21): Identity()
        (22): ReLU()
        (23): MaxPool2d(kernel_size=(1, 2), stride=(1, 2), padding=0, dilation=1, ceil_mode=False)
        (24): Conv2d(20, 20, kernel_size=(1, 3), stride=(1, 1), groups=20)
        (25): Identity()
        (26): ReLU()
        (27): MaxPool2d(kernel_size=(1, 2), stride=(1, 2), padding=0, dilation=1, ceil_mode=False)
      )
      (final_layer): Sequential(
        (0): Dropout(p=0.5, inplace=False)
        (1): Linear(in_features=400, out_features=5, bias=True)
        (2): LogSoftmax(dim=1)
      )
    )
  )
  (fc): Linear(in_features=5, out_features=6, bias=True)
)
{
    "alpha": 0.01,
    "batch_size": 120,
    "device": "cuda",
    "epochs": 5,
    "lr": 0.001,
    "model_name": "eeg-classifier_seed-42",
    "num_workers": 2,
    "phase": "base",
    "seed": 42
}

###### PHASE 1 FINISHED ##########
Figure(640x480)

###### PHASE 2 FINISHED ########OUTPUT_FOLDER##
Figure(640x480)
train loss: 0.0675625396139678
train score: 0.6349803343166175
…
